…
t h5py import tensorflow as tf In\u00a0[14]: Copied! <pre>best_model = \"./dnn_examples/results/gpi1/best_optimized_model_2015.h5\"\nmodel = tf.keras.models.load_model(best_model)\nmodel.summary()\n</pre> best_model = \"./dnn_examples/results/gpi1/best_optimized_model_2015.h5\" model = tf.keras.models.load_model(best_model) model.summary() <pre>Model: \"sequential\"\n_________________________________________________________________\n Layer (type)                Output Shape              Param #   \n=================================================================\n dense (Dense)               (None, 5)                 45        \n                                                                 \n layer_dense_1 (Dense)       (None, 39)                234       \n                                                                 \n layer_dense_2 (Dense)       (None, 39)                1560      \n                                                                 \n layer_dense_3 (Dense)       (None, 39)                1560      \n                                                                 \n layer_dense_4 (Dense)       (None, 39)                1560      \n                                                                 \n layer_dense_5 (Dense)       (None, 39)                1560      \n                                                                 \n dense_1 (Dense)             (None, 3)                 120       \n                                                                 \n=================================================================\nTotal params: 6,639\nTrainable params: 6,639\nNon-trainable params: 0\n_________________________________________________________________\n</pre> In\u00a0[16]: Copied! <pre># Add more info to the model file e.g. the path to the data\nwith h5py.File(best_mode
…
